QMLmodels/net3.pth (torch, 3347 bytes, 4 tensors)

out.0.weight f8 [32, 4]
000000 e5 76 84 2a 18 e8 db bf e3 d2 6a 60 a5 06 c4 3f
       -0.43604091789334937 0.15645281989932078
000010 cf 3c c2 ca f3 a9 c9 3f 1b e2 42 e3 2e 22 c2 bf
       0.2004990329773819 -0.14166818711034143
000020 5a 0e 65 af 08 75 d3 3f d7 4c 48 e8 18 e1 ce 3f
       0.3040181839789732 0.2412444242660061
000030 2c 07 c2 ee ae 77 a6 3f b4 60 e5 f9 b4 99 d1 bf
       0.04388186134839453 -0.27500652698428074
000040 92 34 4c 37 30 e7 e5 3f a7 2e 65 bf 4e d1 e4 3f
       0.6844712333710439 0.650550245112261
000050 ca 74 62 55 36 cc e5 3f 92 6b 7b 9c 4f ea e8 3f
       0.6811782519977438 0.7786024147311414
000060 24 f3 45 c6 84 f9 c9 3f bf 06 47 67 5e 11 e0 bf
       0.20292720490751848 -0.5021202103746062
000070 a2 f9 65 5b 09 75 db bf a7 17 1d da b8 ec cf 3f
       -0.42901834416979956 0.24941168451385673
000080 67 5d 08 06 8a e1 d5 3f df 07 5e 73 dc d0 97 bf
       0.3418908175385326 -0.023257679501973768
000090 eb 46 1a 8d 9a 4a c7 3f 0f da 90 60 5f ce c1 bf
       0.18196422471787996 -0.13911049094322478
0000a0 29 81 d8 15 94 52 d5 3f e9 8f cb 3a 9a 55 e0 bf
       0.33316518910762 -0.5104495189993915
0000b0 c9 3c bc d4 ef 73 d2 bf f2 c0 37 21 d6 23 c2 bf
       -0.2883262231343449 -0.14171864149057672
0000c0 4b 03 f3 8f 90 9b df bf 6d 6c 10 53 8f fe d3 bf
       -0.49386991555734444 -0.3124121009038337
0000d0 cb 0f ff be 6a eb cb bf 15 ca 06 a4 a6 9a da 3f
       -0.21812185598366648 0.4156891443082327
0000e0 47 ba 1d f0 c2 fe b0 bf 37 44 6c d1 5f 0a c7 3f
       -0.06638735162935304 0.18000409818390192
0000f0 d7 a0 af d5 73 26 bc bf 4f 26 44 32 f2 de b0 bf
       -0.10996173827118426 -0.06590188719942457
000100 e1 27 be d3 8a e4 d5 3f 39 ec 95 4b 05 92 d8 bf
       0.34207411458976195 -0.38391239530000437
000110 37 85 9e 33 7d a4 d0 bf 5f de 64 66 b1 02 dd 3f
       -0.26003961602153275 0.45328936576286155
000120 1f aa 67 8a e0 f8 d2 bf df ac fb 07 92 ad a9 bf
       -0.29644025341136343 -0.05015236232233077
000130 c7 fd f1 e8 42 96 d7 bf d3 3d 65 76 9a 83 d7 3f
       -0.3685462260109173 0.3674074321943099
000140 5f 0c 30 94 fa 70 a5 bf d9 f7 56 4c 92 95 da 3f
       -0.0418775850194144 0.4153791184907028
000150 57 63 1a 69 d5 ba da bf 4b 81 c3 3b 30 a1 c9 3f
       -0.4176534201047181 0.200231579953661
000160 d3 0c 20 29 8a d0 cb bf d7 08 c7 dc df da c2 3f
       -0.21730162628236957 0.14730451851034473
000170 7f 25 74 28 86 7e b8 bf 89 55 f4 7d 67 22 d3 bf
       -0.09568060386313525 -0.29897486973035164
000180 3b 56 8c 07 c6 33 d1 bf ff 0e 5f 01 81 ba c1 bf
       -0.2687850068772126 -0.13850414816817389
000190 ff a5 2d 83 a0 89 dc bf 47 c2 4d d8 33 60 c1 bf
       -0.4459000855482315 -0.13574836789804776
0001a0 17 c0 1f be 0b 0c bb 3f 4b 08 3e 42 11 f4 d4 bf
       0.1056525553865416 -0.3273966929338072
0001b0 dd fa 56 9c e3 0e d7 3f fb 6c b7 2b f2 ae c9 bf
       0.36028375880770885 -0.20065142759890606
0001c0 5d f1 cd 23 26 71 d1 bf ff 0e 50 00 5f da ce bf
       -0.2725310659077616 -0.24103915705938303
0001d0 0f 78 d0 60 59 7a a5 3f 53 6b 6e 22 c0 bd c1 3f
       0.041949074810176616 0.13860322648255394
0001e0 37 52 6f a0 52 63 cf bf bb b9 59 4a 4b 0c cc 3f
       -0.24521859010441613 0.21912518625636132
0001f0 d7 f5 38 be 3a 24 be 3f cb a6 7a 6a 5b c9 dc bf
       0.11774031776527437 -0.44978986166334484
000200 91 86 d9 62 9f c9 9f 3f d6 4b 50 c2 1a b5 b6 3f
       0.031042566688830823 0.08870093578325053
000210 5f 1b b3 b4 ea 8e ce bf b0 29 9f b9 ee 2e be bf
       -0.23873647521233018 -0.11790363342075838
000220 85 a4 4b f7 6a 7b e4 3f 7d 9a b7 d1 be 28 e0 3f
       0.6400656537999941 0.5049738021887858
000230 89 23 47 86 80 52 b5 3f b1 63 b5 3d 48 12 e4 3f
       0.08329013136166287 0.6272317128415265
000240 8c ae 6e 60 4e cf d8 3f 32 93 c1 a6 f8 4f d7 3f
       0.3876529638025452 0.36425606045513625
000250 e2 bf 48 9b d2 48 d1 3f b2 6c fc f6 87 67 a3 3f
       0.2700697437712717 0.03789925470319967
000260 55 1b ab ab 21 1e db bf 5b 45 06 6e 79 86 d7 3f
       -0.4237140823792534 0.36758266205386797
000270 25 28 01 80 d2 e4 dc 3f 6f aa ad 90 3d e6 d2 bf
       0.45146620274010935 -0.2953027642130683
000280 c3 55 0d 2d 19 b1 e2 3f 22 c0 01 5b ec c7 a8 bf
       0.5841184501575117 -0.048400293454392576
000290 6e c6 62 47 04 1a dc 3f 7d b1 71 c4 ac 06 e3 3f
       0.439087934220061 0.5945648037718879
0002a0 d1 93 65 07 0e 63 df 3f 31 d8 7a 0e d3 5f db 3f
       0.4904208252176519 0.42772365964936215
0002b0 20 4c 61 dd d1 93 c3 bf be 4b 4b a9 46 2c e7 3f
       -0.15294860181401848 0.724154787685954
0002c0 e5 34 dc be e1 55 db bf 7f 0d 10 ef 22 fa d5 bf
       -0.42711681021394404 -0.34339211793868424
0002d0 0f e9 2f 03 8a 70 dc bf a3 0e 06 fb e9 c2 c3 bf
       -0.4443688422321807 -0.15438580281271638
0002e0 fc 6b cd c4 17 aa d5 3f 44 e7 57 34 5a e1 b6 bf
       0.33850664347636417 -0.08937610414423341
0002f0 70 6d 37 6f d9 09 cd 3f 35 fb 17 c3 02 cf df 3f
       0.22686307840818243 0.49700993587605363
000300 d1 6f cc 60 31 fd d8 bf e3 9f 2c 3b 14 80 d2 bf
       -0.3904536671923298 -0.28906732348195713
000310 bb b3 90 36 4b 0d c7 3f 49 72 3d 20 db 38 d6 bf
       0.18009319462126236 -0.3472202124446864
000320 eb 87 aa e8 c2 c7 d4 bf b3 cc 3d e1 88 49 c4 3f
       -0.3246924659853209 0.15849410055270638
000330 4f 25 83 27 7d 96 ae 3f d3 0e 63 3b a2 b8 d4 3f
       0.05974188906982169 0.3237691478682169
000340 5f 7f 02 c1 8d 9e b5 3f 5b 94 c3 1b 0f 29 c9 bf
       0.08445058786537406 -0.19656552177108008
000350 fb 67 4c ec 70 05 d6 bf 1f 82 54 82 82 e8 d0 3f
       -0.344082098732201 0.26419127204465725
000360 6b 27 fe 59 27 c4 c0 bf 0f 0d b5 59 5b 69 e6 3f
       -0.13098613638095044 0.7003609420866342
000370 d1 39 03 19 c2 4b e4 3f c5 ea b1 a8 dd 5d db 3f
       0.6342478264357913 0.4276041171466825
000380 5f 16 ce 8e f9 24 be 3f 33 39 41 f8 6e df d3 bf
       0.11775169121218586 -0.31051229709273115
000390 ff 87 09 14 da 59 4c bf 6b a4 49 d9 0a aa dd bf
       -0.0008652033648781642 -0.4635035631131987
0003a0 33 c5 29 20 f5 65 dd bf 3f 6e a4 31 76 c9 db bf
       -0.45934799328741177 -0.43417124603158536
0003b0 c1 8d 4a ae 81 4a d0 3f 5b 38 87 f2 e9 c8 d9 bf
       0.25454751988055696 -0.4028878086509217
0003c0 87 8b 12 3a f6 2d d6 bf 47 07 8c f1 0f db bf 3f
       -0.34655528708588473 0.12443637511389936
0003d0 8f 26 d4 6d 48 fb a9 bf ef 60 83 7f cc 1a da bf
       -0.050745261580300675 -0.40788567020855643
0003e0 1f 4f 8c 1e 3f e5 9e bf 5b 5d 1a 59 4c 6c d3 bf
       -0.030171381225115753 -0.30348499967063497
0003f0 a7 75 ff 96 86 0a d1 3f ab 4b e7 fe 6e ea ce 3f
       0.26626744027984234 0.24152934500179177

out.0.bias f8 [32]
000000 dc a5 bd 9c 70 11 dd bf ef 97 6d 9d 06 b2 cc 3f
       -0.454189446513366 0.2241829174701588
000010 50 db e6 43 3b 0e e1 3f 89 59 bd ab 9c 6c b9 3f
       0.5329872442442625 0.09931353752958762
000020 8a a5 61 98 bc 44 d7 bf 6b a2 0a 4b 47 ef d7 3f
       -0.36357035523413883 0.3739793999507472
000030 6c 27 aa 27 89 78 c7 bf 08 27 24 0c bb 7b bd bf
       -0.18336595951796697 -0.1151692299501087
000040 98 44 16 e7 c8 6e df bf b8 1b c1 c1 77 81 d1 bf
       -0.49113676611984536 -0.2735270874149438
000050 ea db 1c 6e c9 92 d5 bf a4 e0 50 9e 7c 48 dd bf
       -0.3370841574973712 -0.457549242597006
000060 34 06 66 61 c3 ba c7 3f 38 6d bc ac 48 36 b8 bf
       0.18538706069743827 -0.09457830636204256
000070 04 8d e2 49 c3 bc c9 3f 80 ea 45 3e 58 90 7b bf
       0.20107308490432996 -0.006729454708301774
000080 4d d7 21 1b fd 9a c4 3f 1c 69 92 49 be 49 ac 3f
       0.16097987961591756 0.05525011680693323
000090 6c e9 f0 db f7 e8 e1 3f 90 a4 cf ff 85 39 db bf
       0.5596885009502279 -0.4253859518199272
0000a0 27 bd 3d c5 f2 b0 c2 3f 72 61 c9 7c 3b 98 d6 3f
       0.14602503424564725 0.35304152666278477
0000b0 d4 e2 e9 f8 f7 b8 d6 bf 03 70 30 c5 9a 6d e5 3f
       -0.3550395899579091 0.6696294642783872
0000c0 b0 c5 ad f4 65 f9 cb 3f 1c d8 5e 58 4e 4d db bf
       0.21854853102881355 -0.4265933859818476
0000d0 bc 6b 6b 7f 17 b1 d0 bf 19 a9 76 9e b8 21 c9 3f
       -0.26080882495233104 0.196341588377728
0000e0 a6 a6 4f 75 d4 f5 df 3f 34 56 01 51 d8 65 d5 bf
       0.4993792672745293 -0.3343411246363275
0000f0 04 da 4f a7 6e 9f c9 3f 0a da c3 ab 1f 08 d5 bf
       0.20017798585440982 -0.3286208321946168

out.2.weight f8 [1, 32]
000000 74 dc 64 ef 75 33 b3 3f 43 8d cd 2e b8 64 b7 bf
       0.07500397772388273 -0.09138060705804656
000010 d2 fe bc 28 74 71 d6 bf 4e fc bc c8 4f 19 6a bf
       -0.35067466715189 -0.003185897663484683
000020 20 ae df 77 a7 4e be 3f 59 d6 6c dd 83 09 a8 3f
       0.11838766743283502 0.046947594432293634
000030 7c a3 4b 5b 9d 8b bf bf 77 29 9a 97 fe 4c ac bf
       -0.12322410086529872 -0.05527492142307982
000040 6c a3 cc 07 bd e7 c4 3f 3d 42 97 97 28 68 bd 3f
       0.16332209473446413 0.11487058354328723
000050 23 09 ec 06 00 a4 b7 bf 4a e1 f5 7a 81 85 ae 3f
       -0.09234619301790707 0.05961231828672682
000060 14 78 20 5f 56 4e 99 3f bc 79 3f 49 22 cc c1 3f
       0.024712895923691816 0.13904217316208
000070 e3 3e c1 ec b3 4a c6 bf ec 8d 86 d5 20 0b c2 bf
       -0.1741547494916552 -0.14096460748724782
000080 4e ef 19 51 4f b0 86 3f 56 04 ac 1b 77 35 da bf
       0.011078471815600868 -0.4095132608636666
000090 38 a9 5e ee 09 96 d6 bf b7 e0 59 4e 0c e9 a4 bf
       -0.3529076412038594 -0.04084051567491669
0000a0 0b 87 d2 c8 31 95 d1 bf b1 1f d8 77 3b dc dc bf
       -0.2747311078220355 -0.45094191268480716
0000b0 64 51 1f 64 19 c2 c4 3f e5 24 75 d3 b1 71 d2 bf
       0.1621734370115845 -0.28818936967998204
0000c0 48 5b 2a 17 a4 83 c2 3f f9 64 23 ff 40 ef a0 3f
       0.14464236384511708 0.03307536234360415
0000d0 0e 35 6c 70 ce df be bf dc 1b 51 ea b3 20 de bf
       -0.12060251469320724 -0.47074602015021383
0000e0 b8 74 ad 69 0f 05 c6 3f d7 7a d9 45 ea 20 bb 3f
       0.17202942523991793 0.10597099499998862
0000f0 13 6e f7 4c a3 49 a7 bf df 4f ea 2b cc 54 c4 3f
       -0.04548368753941303 0.15883781570721475

out.2.bias f8 [1]
000000 87 20 a3 f4 2e b0 d6 bf
       -0.35450338259079966
